…
ream","name":"stdout","text":["Model: \"model\"\n","__________________________________________________________________________________________________\n"," Layer (type)                   Output Shape         Param #     Connected to                     \n","==================================================================================================\n"," input_1 (InputLayer)           [(None, 2, 1)]       0           []                               \n","                                                                                                  \n"," layer_normalization (LayerNorm  (None, 2, 1)        2           ['input_1[0][0]']                \n"," alization)                                                                                       \n","                                                                                                  \n"," multi_head_attention (MultiHea  (None, 2, 1)        1289        ['layer_normalization[0][0]',    \n"," dAttention)                                                      'layer_normalization[0][0]']    \n","                                                                                                  \n"," dropout (Dropout)              (None, 2, 1)         0           ['multi_head_attention[0][0]']   \n","                                                                                                  \n"," tf.__operators__.add (TFOpLamb  (None, 2, 1)        0           ['dropout[0][0]',                \n"," da)                                                              'input_1[0][0]']                \n","                                                                                                  \n"," layer_normalization_1 (LayerNo  (None, 2, 1)        2           ['tf.__operators__.add[0][0]']   \n"," rmalization)                                                                                     \n","                                                                                                  \n"," conv1d (Conv1D)                (None, 2, 4)         8           ['layer_normalization_1[0][0]']  \n","                                                                                                  \n"," dropout_1 (Dropout)            (None, 2, 4)         0           ['conv1d[0][0]']                 \n","                                                                                                  \n"," conv1d_1 (Conv1D)              (None, 2, 1)         5           ['dropout_1[0][0]']              \n","                                                                                                  \n"," tf.__operators__.add_1 (TFOpLa  (None, 2, 1)        0           ['conv1d_1[0][0]',               \n"," mbda)                                                            'tf.__operators__.add[0][0]']   \n","                                                                                                  \n"," layer_normalization_2 (LayerNo  (None, 2, 1)        2           ['tf.__operators__.add_1[0][0]'] \n"," rmalization)                                                                                     \n","                                                                                                  \n"," multi_head_attention_1 (MultiH  (None, 2, 1)        1289        ['layer_normalization_2[0][0]',  \n"," eadAttention)                                                    'layer_normalization_2[0][0]']  \n","                                                                                                  \n"," dropout_2 (Dropout)            (None, 2, 1)         0           ['multi_head_attention_1[0][0]'] \n","                                                                                                  \n"," tf.__operators__.add_2 (TFOpLa  (None, 2, 1)        0           ['dropout_2[0][0]',              \n"," mbda)                                                            'tf.__operators__.add_1[0][0]'] \n","                                                                                                  \n"," layer_normalization_3 (LayerNo  (None, 2, 1)        2           ['tf.__operators__.add_2[0][0]'] \n"," rmalization)                                                                                     \n","                                                                                                  \n"," conv1d_2 (Conv1D)              (None, 2, 4)         8           ['layer_normalization_3[0][0]']  \n","                                                                                                  \n"," dropout_3 (Dropout)            (None, 2, 4)         0           ['conv1d_2[0][0]']               \n","                                                                                                  \n"," conv1d_3 (Conv1D)              (None, 2, 1)         5           ['dropout_3[0][0]']              \n","                                                                                                  \n"," tf.__operators__.add_3 (TFOpLa  (None, 2, 1)        0           ['conv1d_3[0][0]',               \n"," mbda)                                                            'tf.__operators__.add_2[0][0]'] \n","                                                                                                  \n"," layer_normalization_4 (LayerNo  (None, 2, 1)        2           ['tf.__operators__.add_3[0][0]'] \n"," rmalization)                                                                                     \n","                                                                                                  \n"," multi_head_attention_2 (MultiH  (None, 2, 1)        1289        ['layer_normalization_4[0][0]',  \n"," eadAttention)                                                    'layer_normalization_4[0][0]']  \n","                                                                                                  \n"," dropout_4 (Dropout)            (None, 2, 1)         0           ['multi_head_attention_2[0][0]'] \n","                                                                                                  \n"," tf.__operators__.add_4 (TFOpLa  (None, 2, 1)        0           ['dropout_4[0][0]',              \n"," mbda)                                                            'tf.__operators__.add_3[0][0]'] \n","                                                                                                  \n"," layer_normalization_5 (LayerNo  (None, 2, 1)        2           ['tf.__operators__.add_4[0][0]'] \n"," rmalization)                                                                                     \n","                                                                                                  \n"," conv1d_4 (Conv1D)              (None, 2, 4)         8           ['layer_normalization_5[0][0]']  \n","                                                                                                  \n"," dropout_5 (Dropout)            (None, 2, 4)         0           ['conv1d_4[0][0]']               \n","                                                                                                  \n"," conv1d_5 (Conv1D)              (None, 2, 1)         5           ['dropout_5[0][0]']              \n","                                                                                                  \n"," tf.__operators__.add_5 (TFOpLa  (None, 2, 1)        0           ['conv1d_5[0][0]',               \n"," mbda)                                                            'tf.__operators__.add_4[0][0]'] \n","                                                                                                  \n"," layer_normalization_6 (LayerNo  (None, 2, 1)        2           ['tf.__operators__.add_5[0][0]'] \n"," rmalization)                                                                                     \n","                                                                                                  \n"," multi_head_attention_3 (MultiH  (None, 2, 1)        1289        ['layer_normalization_6[0][0]',  \n"," eadAttention)                                                    'layer_normalization_6[0][0]']  \n","                                                                                                  \n"," dropout_6 (Dropout)            (None, 2, 1)         0           ['multi_head_attention_3[0][0]'] \n","                                                                                                  \n"," tf.__operators__.add_6 (TFOpLa  (None, 2, 1)        0           ['dropout_6[0][0]',              \n"," mbda)                                                            'tf.__operators__.add_5[0][0]'] \n","                                                                                                  \n"," layer_normalization_7 (LayerNo  (None, 2, 1)        2           ['tf.__operators__.add_6[0][0]'] \n"," rmalization)                                                                                     \n","                                                                                                  \n"," conv1d_6 (Conv1D)              (None, 2, 4)         8           ['layer_normalization_7[0][0]']  \n","                                                                                                  \n"," dropout_7 (Dropout)            (None, 2, 4)         0           ['conv1d_6[0][0]']               \n","                                                                                                  \n"," conv1d_7 (Conv1D)              (None, 2, 1)         5           ['dropout_7[0][0]']              \n","                                                                                                  \n"," tf.__operators__.add_7 (TFOpLa  (None, 2, 1)        0           ['conv1d_7[0][0]',               \n"," mbda)                                                            'tf.__operators__.add_6[0][0]'] \n","                                                                                                  \n"," global_average_pooling1d (Glob  (None, 2)           0           ['tf.__operators__.add_7[0][0]'] \n"," alAveragePooling1D)                                                                              \n","                                                                                                  \n"," dense (Dense)                  (None, 128)          384         ['global_average_pooling1d[0][0]'\n","                                                                 ]                                \n","                                                                                                  \n"," dropout_8 (Dropout)            (None, 128)          0           ['dense[0][0]']                  \n","                                                                                                  \n"," dense_1 (Dense)                (None, 1)            129         ['dropout_8[0][0]']              \n","                                                                                                  \n","==================================================================================================\n","Total params: 5,737\n","Trainable params: 5,737\n","Non-trainable params: 0\n","___________________________________________________________________
…
